model_steels.pth (torch, 15354 bytes, 5 tensors)

weight f4 [60, 15]
00000000: 38f9 8e3d 55d9 1dbe 623f 8c3f e0a1 d93e
00000010: 7c1a cbbf af84 683f b5f0 2fbf e94b e8be
00000020: b4e5 59be e477 30bf f016 393d 62d4 5bbf
00000030: 70e1 273f 740d bf3e d982 fd3e db1d aa3f
00000040: c67e 82bd 9650 bc3e 1d4d 213f 0321 f8be
00000050: e31e 1d3f 8165 dcbd b29a 85bd b51c 7cbb
00000060: 599e d5be d069 913c f3a0 08bf 3f72 293f
00000070: d356 5abe 373e 16c0 ef0d f7be f099 503d
00000080: 5d07 ae3e b43f ccbe b08c d8be 2fd0 6d3f
00000090: 8402 96bf ee4a 40bd f042 9c3e db66 023f
000000a0: bb90 73be b686 983e 01d0 673f 4853 073f
000000b0: 873d a43e 9794 6fbd 4547 033f 0638 cc3e
000000c0: 567d 1c3a 3192 d7bd 5478 b2bf 2567 133f
000000d0: 1ed2 883f 89fa 8c3e 57e7 273e 01fd 68bf
000000e0: b021 903e a946 a4be 4e02 27be 3f18 cfbe
000000f0: a763 5f3f 7501 ac3f 3036 983e e9bf 903e
00000100: 0aa5 9cbe 0091 62bf 3ca2 08bf a8f0 01bf
00000110: 922b 41be d5cf 65bf 0fea 70bf 83d1 40bf
00000120: 23be 663f 63eb 75bf 87ef 223e 5b6f d93e
00000130: af6d 2a3f ad4e f6be d615 373f cfeb 213f
00000140: d5ed aebf ed98 5dbd 972c a73f cf5c 953f
00000150: c2ff e5bd 502f 88bf 1e79 473f 6542 3dbf
00000160: 9101 13bf a787 1e3f b283 12be a3f3 253f
00000170: 3a79 cd3d cbe6 0a3f 3ed5 2abf 29f4 713f
00000180: 2823 d73e eefe 313f fbfd d9bc 83bc 613e
00000190: 82e6 acbd 10b3 5abf ff0b 333f d318 35bf
000001a0: 1366 c1bf 38cd a3be 4391 60bf 7756 23bf
000001b0: 2006 1abe 2eb0 293f d007 2dbe d5b7 bcbe
000001c0: eba9 d1bf b2d0 1a3e 0f56 883f b7e8 1a3f
000001d0: 83b7 f4be 5eb1 813f d702 893e 237a 8e3f
000001e0: 568e cfbf ddac 1ebe 4fee 923e e7db ebbe
000001f0: ad89 453e 121f bb3f 445c 09bf c91e 13bf
00000200: 5925 303e 022e 743d c9ce 123e 0b41 14bf
00000210: 896b 083f 9551 9d3e 02e6 da3e dff1 18bf
00000220: 32e5 0a3f f72b 35bf 8cb7 003f cc03 503e
00000230: f076 20bf a6c5 3bbd c4fb 20bf 7f4e e1be
00000240: 44c0 3dbf 84d5 9bbe 95e0 18bf 5912 493e
00000250: 802a 323e 36ce d6bd c9a9 9b3e 3777 bd3e
00000260: ef91 423f ee3c 4c3f 7400 393f 5ff1 883e
00000270: 5a12 013e 41ac 71bf 8adf 2dbf c5fd 463e
00000280: 9470 bf3e 6a5d 543f e74a 553f c8cd a13e
00000290: b71a e33e 81c8 a9be 085c 1bbe f8a8 363f
000002a0: 0d87 92bb 48ed 81be b914 e53d d63e 8e3d
000002b0: baa2 bd3e 09c2 88be 75c6 903f c699 183f
000002c0: 8696 84bc 4bda 683f 60a1 5c3e 9c4b 6dbf
000002d0: 9788 30be 8809 93bf 98a7 76be 0b7b c2bd
000002e0: 2ee8 cb3e 0d9a ddbf 89f1 953f 638e 7f3f
000002f0: d4b1 cf3f 0d51 fb3d d26c e5bf 7dc5 40bf
00000300: 442f 723e 7c99 d53e 7520 18bf 4508 7c3e
00000310: f010 12be 1b26 29be 78d0 8cbd 37c4 e4be
00000320: 1e5e a4bf ae84 943e eca4 543f 267a d63e
00000330: b224 4cbd bc33 21bf 1a55 1ebd 5ab3 62bf
00000340: 4738 e93e 7862 a2bf 768a 503f 3c8c e63e
00000350: 0887 ae3e 371d 173f 9c2d 86be f2db f23e
00000360: 083a 073d 340a e0be 5455 19bf ef5e 093f
00000370: dd6f d33e e6e0 28bf 57f4 1f3f f26b 1a3e
00000380: 7af4 eabd 57e9 f13d 2f47 133f caa5 e9be
00000390: bdcb 90bf 26ef 02be a52e 4abf 4d09 f33e
000003a0: 1362 623f 6377 703f 665f 24bd 310b 22bf
000003b0: 43f6 823e fa56 f93e 8e4b 153f 44d6 99bf
000003c0: d993 573f 00b7 463e 3b29 a3bd 220f 1ebf
000003d0: 3b15 6fbd 80ca d0bf 4479 52be a453 643e
000003e0: ce87 0f3f fa59 d3bd 9b8b 2fbc 6648 4f3f
000003f0: 3a00 10bf d2d0 26bf 42cb 583f af89 083f
0.069811285 -0.15414937 1.0956843 0.42506313 -1.5867457 0.9082746 -0.68726665 -0.45370415
-0.21279031 -0.6893294 0.04518789 -0.85870945 0.65578365 0.3731495 0.4951389 1.3290361
-0.06371836 0.36780232 0.6300829 -0.48462686 0.61375254 -0.10761548 -0.065236464 -0.003846926
-0.41722372 0.01775065 -0.5337059 0.6618995 -0.21322183 -2.3475473 -0.48252818 0.050928056
0.33989993 -0.39892352 -0.42294836 0.9289579 -1.1719518 -0.04694646 0.3051982 0.50938195
-0.23785679 0.29790276 0.90551764 0.5286145 0.32078192 -0.058491316 0.51280624 0.39886492
0.0005969604 -0.10525931 -1.3942971 0.5757926 1.0689123 0.27534893 0.16396843 -0.91011053
0.28150702 -0.3208516 -0.16309473 -0.40448186 0.8726143 1.3437945 0.29728842 0.28271416
-0.30594665 -0.885025 -0.5337255 -0.5075784 -0.18864277 -0.8977025 -0.94107145 -0.7531969
0.90133876 -0.96062297 0.15911685 0.4246777 0.66573614 -0.481069 0.71517694 0.6325044
-1.366633 -0.05410092 1.3060483 1.1668948 -0.112304226 -1.0639439 0.77919185 -0.73929435
-0.57424265 0.6192574 -0.1430805 0.64824885 0.10032888 0.5425841 -0.6673163 0.94513184
0.4201901 0.69529617 -0.026610365 0.22044568 -0.084424034 -0.8542948 0.6994018 -0.70741004
-1.5109276 -0.31992507 -0.8772165 -0.6380381 -0.15041399 0.66284454 -0.16897511 -0.36859003
-1.637998 0.15118673 1.0651263 0.60511345 -0.47796258 1.0132253 0.2675998 1.1131023
-1.6215312 -0.1549563 0.2869744 -0.4606621 0.192908 1.4618857 -0.5365641 -0.5746885
0.17201747 0.05961419 0.14336695 -0.5791175 0.53289086 0.30726305 0.42753607 -0.59744066
0.54255974 -0.7077021 0.5028007 0.20313948 -0.62681484 -0.04584279 -0.62884164 -0.440052
-0.741215 -0.30436337 -0.59717685 0.19635905 0.17399025 -0.1048855 0.30402973 0.37005016
0.76003927 0.7978047 0.72266316 0.26746652 0.12604657 -0.94403464 -0.6791922 0.19432743
0.37390578 0.8295504 0.83317417 0.3160231 0.4435632 -0.33160785 -0.15171826 0.71351576
-0.0044716657 -0.25376344 0.11185593 0.06945579 0.37038213 -0.26710537 1.1310564 0.5960964
-0.016185056 0.9095809 0.21545935 -0.92693496 -0.17239605 -1.1487284 -0.2408737 -0.09496125
0.39825577 -1.7312638 1.1714336 0.9982664 1.6226144 0.122713186 -1.7923834 -0.75301343
0.23650843 0.41718662 -0.59424525 0.2461253 -0.14264274 -0.16518442 -0.068757 -0.4468095
-1.2841222 0.29007477 0.8306415 0.41890067 -0.049839683 -0.62969565 -0.038655378 -0.8855492
0.4555075 -1.26863 0.81461275 0.45028865 0.34087396 0.59028953 -0.26206672 0.4743343
0.033014327 -0.43757784 -0.59895825 0.5366048 0.41296282 -0.6596817 0.6248221 0.1508024
-0.114724115 0.11812084 0.5753049 -0.456343 -1.1312176 -0.1278654 -0.78977424 0.47468033
0.884309 0.9393217 -0.04013004 -0.63298327 0.25578508 0.4869917 0.5831841 -1.2018514
0.8420997 0.19405746 -0.079668485 -0.6174184 -0.058369856 -1.6311798 -0.20554072 0.22297531
0.56066597 -0.10319896 -0.010714437 0.80969846 -0.56250346 -0.65162385 0.84685147 0.5333509

bias f4 [60]
00000000: 4238 353f be23 9b3f 104c 133e 33e4 c13e
00000010: 5290 203f b841 fd3e 75b3 8c3f d88d 1e3f
00000020: 4bb2 c23d af46 763f 2090 093e 2e4d 433e
00000030: 6675 b4be c61c 8f3f 3587 183f 748a 323e
00000040: a245 0d3f a89d 35be 4caa 03bf 48e9 743f
00000050: 9c11 673f 2601 c43f 257d 213e eeac 003f
00000060: a3f5 713f 5aaa e03e 1954 ab3f 2465 ea3e
00000070: 07a0 693f bec5 ac3e e057 e83e aa5d a5be
00000080: acda 093f f16d 2c3e c573 de3e 0180 be3e
00000090: 0ae1 853f 4779 663f fb48 e63e 1a51 283f
000000a0: 9f35 933f 3859 b63f 2082 0f3f 4906 343f
000000b0: 5f91 f5bd 1d37 a73e 78c7 52bc be89 043e
000000c0: e1aa 953e bd99 763f 73bf 9b3d 090a 12bc
000000d0: 1e5e 4a3f 9606 bd3e d8c1 253f 6cd0 443f
000000e0: 4e7a 673f 89ca d63f 8544 c63f 111c bd3f
0.7078897 1.2120283 0.14384484 0.37869415 0.62720215 0.49464202 1.0992266 0.61935186
0.09506663 0.96201605 0.13433886 0.1907241 -0.35245818 1.1180656 0.5958131 0.17435628
0.55184376 -0.17735922 -0.5143173 0.9566846 0.90261245 1.531285 0.15770395 0.5026387
0.94515437 0.43879968 1.338504 0.4578029 0.9125981 0.33744615 0.45379543 -0.32298023
0.5384929 0.16838814 0.434477 0.37207034 1.0459301 0.90028805 0.44977555 0.6574875
1.1500739 1.4245977 0.5605793 0.7032209 -0.11990618 0.32659236 -0.01286494 0.1294317
0.29231933 0.96328336 0.076048754 -0.008913525 0.7904986 0.36919087 0.6474891 0.76880527
0.90421 1.6780559 1.548966 1.477419

weight f4 [30, 60]
00000000: ea8e ee3f b09f cdbf 0e80 d2be 3ed4 d6be
00000010: a93c 0e3f 6316 1d40 935d 08c0 2110 9dbd
00000020: 6fe5 88bf b50f 09c0 88bd fc3f 54df acbe
00000030: f678 d63f a2dd ef3f 3ce9 5bbf 3dd6 0640
00000040: cef1 44bd fc7a 23be 8674 6d3f 14ff a23e
00000050: cbe6 d7bf 37ad 763e 3eab f3bf 2342 18c0
00000060: 101d 9c3f 91ca 12c0 2796 923f f829 84bf
00000070: 0d61 2cbf aab4 4cbf 674d e9bf b5d8 c03f
00000080: 9c44 ca3e d8d6 aebf e33b dd3e 8390 e63e
00000090: 2af7 22c0 025f e63f 8f53 7abf 134e 0cc0
000000a0: bb97 563f 4d17 dc3d 73e5 13c0 9933 d7bf
000000b0: c40e a9bf 0987 f7bf 4cda adbe b488 0440
000000c0: 5cf0 03c0 f002 0abe 4351 3140 5ab2 5dbf
000000d0: 5707 efbc e483 d53f e398 cd3e cd41 1b3e
000000e0: 5530 fe3f 048e ae3e c2ad cbbd 0b04 ad3f
000000f0: bee9 ef3c 0bf0 603f 2b4f 033f 35b4 203f
00000100: 9166 4e3e 43cd 7a3e 606f fabd 4208 423f
00000110: b73f 103e a66d b3bc 6989 7e3e 5bc5 b73e
00000120: 0ad8 bf3e a7ea 6ebe 816e 013f f75c 413e
00000130: 46a4 0a3f dc40 be3f 452c ab3f 100d d23f
00000140: 437b 64bd 2c18 4e3f 477a 223f e15e 4f3f
00000150: ade6 923e ade4 9b3f 30b3 473f 0574 f23e
00000160: 226a 113d 7844 f53d d9ab 1abe 5419 903e
00000170: 384f 683f cce8 713e c272 0b3f 737a 343f
00000180: 0983 3fbd 52cc a73c 7969 c93d 8000 2b3e
00000190: 5ad2 913e dd98 443f 9376 213f cc78 d73d
000001a0: f1e0 0cbd 758f ef3e df2e f53e 4675 0f3f
000001b0: ae11 c2be 4b28 c8be 9488 7a3f 252f 4d3e
000001c0: 8190 f73e 57ce f53e 6b88 c03e afb0 9fbd
000001d0: e464 96bd 3b25 2f3f 59a8 503f c5e1 743f
000001e0: 676c d2bf bcef 813e 6996 623f 1b55 60bf
000001f0: 811d 82c0 6399 083f e87c 85bf 8a12 c43f
00000200: 5d91 f63f df38 90bf 6acf fc3e 6964 0bbf
00000210: 9ef0 fa3e 82a8 94bf 43c1 d7bf db9d 00c0
00000220: c653 593e 8a3c 4b3f 9af7 9bc0 26f5 533f
00000230: f119 82bf 9a51 cf3f 9ddb 87bf b5c6 d4be
00000240: 6bde 26c0 8723 85be 635a d8be 6610 d63f
00000250: d1e4 98be d2a6 c4bf 4b28 a2bf 393a 493e
00000260: 9393 77bf 4365 993f 4ba2 dcbf ab42 b83f
00000270: 9f96 2d3d 87bf af3f 5552 e8bb 44da 16bf
00000280: 778b 49c0 2e9e a83f c28a b73f 9113 8cbf
00000290: d5ea af3d be1a a73f df31 3cbf ed94 443f
000002a0: 26ae d63f 5088 6bbe 8e63 fdbf b00a 8fbf
000002b0: edd5 44be be58 1ac0 b958 05c0 34d1 18c0
000002c0: fb77 44bf 074a 8c3f 5bdf 723f 94d4 7d3f
000002d0: c278 fb3f 7f78 83be 9670 9b3f ec8a dcc0
000002e0: 3e29 ba3f 0b7f 20c0 cf1b 78be 436b cf3e
000002f0: 5074 b4be a655 8ebf 783c ae3f 49dc 7c3e
00000300: ab23 d8c0 4d31 1fc0 4f33 99be 0777 98c0
00000310: 4ee9 0dc1 45a7 4dc0 d44b 0dc0 40fe ff3e
00000320: 17c3 0abd 748c 9e3e 5bcb 1cbd 3675 07c0
00000330: d123 bc3f eaac 27be a535 49bf 1ec9 d33f
00000340: c74f debf 228d 0a41 98b6 0541 ebc0 3fc0
00000350: 61a4 52c0 ad8f 963e 961e 253f b8ec 5e3f
00000360: 7de7 1abf df90 d73f 89c7 e33f 31e7 0dc1
00000370: 45aa b73f 5fba 6bc0 341a 09bf 3100 48c0
00000380: b952 1bc1 bf94 2c40 398b c23d 1260 4ac0
00000390: 6e77 083f 40c5 78bd 7d90 13c0 6391 88bd
000003a0: c211 83c0 60fd c83f df12 6f3f 5e6f 4240
000003b0: 2c3e 0dc1 19c5 043f f7ff 87bf fedf b7bd
000003c0: af83 393f 65b7 09c0 2878 9f3f 9174 9e40
000003d0: 684a ae3f 6761 46bf 3f7e b4bf 69ad 2d3f
000003e0: 0982 97bf dbb1 90bf bf06 d93f 7d7e 8cbe
000003f0: bcbe 84c0 1982 dcbf 3b93 1fbf 5051 b73f
1.8637364 -1.6064358 -0.41113323 -0.41958803 0.5556131 2.4544914 -2.1307113 -0.07669092
-1.0695018 -2.1415837 1.974534 -0.33764136 1.6755664 1.8739512 -0.8590276 2.106826
-0.048082165 -0.15964884 0.92755926 0.31835234 -1.6867307 0.24089514 -1.9036634 -2.3790367
1.2196369 -2.2936137 1.1452073 -1.0325308 -0.6733559 -0.7996317 -1.8226746 1.5066134
0.3950547 -1.3659315 0.43209752 0.4503213 -2.5463357 1.7997744 -0.9778375 -2.1922653
0.8382527 0.10746632 -2.3108795 -1.6812621 -1.3207631 -1.9338084 -0.3395561 2.0708437
-2.0615454 -0.13477683 2.7705848 -0.8660027 -0.029178305 1.6680875 0.40155706 0.1516182
1.98585 0.34092724 -0.09945251 1.3516859 0.029286262 0.87866277 0.51292676 0.62774974
0.20156313 0.24492364 -0.12228274 0.7579385 0.14086805 -0.02190287 0.24857105 0.35892758
0.37469512 -0.233317 0.5055924 0.1888312 0.5415691 1.4863544 1.3372885 1.6410236
-0.055781614 0.80505633 0.6346783 0.8100415 0.28691617 1.2179161 0.78007793 0.4735414
0.035501607 0.1197595 -0.15104617 0.28144324 0.9074588 0.23623961 0.5447198 0.7049934
-0.046755824 0.02048317 0.098345704 0.1669941 0.28480798 0.7679575 0.63071555 0.10521087
-0.03439421 0.46789137 0.47887322 0.5603832 -0.37904114 -0.3909324 0.9786465 0.20037515
0.48352435 0.48008987 0.3760408 -0.077973716 -0.07343462 0.68416184 0.8150688 0.95656997
-1.6439332 0.25378215 0.8851076 -0.8762986 -4.0661016 0.5335905 -1.0428743 1.5318158
1.9263111 -1.1267356 0.49376994 -0.5445009 0.490117 -1.1613925 -1.6855854 -2.0096347
0.21223363 0.7938925 -4.873975 0.8279594 -1.0164167 1.6196778 -1.0613896 -0.4155785
-2.6073253 -0.26003668 -0.4225646 1.6723754 -0.29862073 -1.536341 -1.2668546 0.19651116
-0.96709555 1.1984028 -1.7237028 1.4395345 0.04237997 1.3730325 -0.007089893 -0.58926797
-3.1491373 1.3173273 1.433922 -1.0943471 0.085897125 1.3055036 -0.735136 0.7678974
1.6771896 -0.23001218 -1.9796007 -1.1175137 -0.19222231 -2.4116664 -2.0835402 -2.3877687
-0.76745576 1.0960091 0.94872063 0.99152493 1.9646227 -0.2567787 1.2143734 -6.891958
1.4543836 -2.507754 -0.24229358 0.40511522 -0.3524499 -1.1119888 1.3612204 0.24693407
-6.754354 -2.487384 -0.29921958 -4.7645297 -8.869459 -3.2133343 -2.2077532 0.49998665
-0.03387746 0.30966532 -0.038279872 -2.116529 1.469843 -0.16374555 -0.7859748 1.6545751
-1.7368096 8.659456 8.357079 -2.9961498 -3.291283 0.2940649 0.64499795 0.87079954
-0.60509473 1.6841086 1.7795268 -8.868943 1.4348837 -3.6832502 -0.5355561 -3.1250117
-9.707696 2.6965787 0.09499211 -3.1621137 0.53307235 -0.060734987 -2.3056939 -0.06668355
-4.0959177 1.5702324 0.9338817 3.0380473 -8.827679 0.5186325 -1.0624989 -0.0897827
0.7246656 -2.1518185 1.2458544 4.9517293 1.3616457 -0.77492374 -1.4101027 0.6784273
-1.1836559 -1.1304277 1.6955184 -0.27440253 -4.148283 -1.7227203 -0.6233403 1.432169

bias f4 [30]
00000000: de3c 9b3e d45b 293e 7aae 283e 1e79 84bf
00000010: b04b 14bf 3318 2a3d a25e 053e d6a3 af3d
00000020: 8219 623e 8e93 06bf 50a7 8c3e 7a29 243e
00000030: 1345 983e 8aca d53e f2ae 6f3f 17c2 9c3d
00000040: 2274 543e b596 583e 8d1e 38be 1e07 2d3d
00000050: f0b2 58bf 7a84 813f cfd0 a23d 32ac 7b3e
00000060: f11e 103e f6ef 063e dc2e a83e 0a2c 8c3e
00000070: ab9e 26bf a6d5 493e
0.30319875 0.16538936 0.16472808 -1.0349462 -0.5792799 0.041526984 0.13024381 0.08576171
0.22080043 -0.525689 0.274714 0.16031447 0.297402 0.41756088 0.9362632 0.07654207
0.20747426 0.2115124 -0.17980404 0.042243116 -0.84648037 1.0118554 0.07949983 0.24577406
0.14074303 0.13177475 0.3284825 0.2737735 -0.6508586 0.19710407

weight f4 [1, 30]
00000000: 380c 41c0 7a41 323f 0d75 40c0 d965 3fc0
00000010: 6324 e0bf e311 2cc0 815b 593f 60ac 3c3f
00000020: 0f32 4c3f cd7e 3fc0 870c 203f 5314 443f
00000030: d8ea 2b3f 59b1 14c0 a7d6 29c0 e19b 533f
00000040: 789a 4f3f 178d 2f3f 601e 49c0 da0b 43c0
00000050: 2455 52c0 f7e8 5bc0 9a40 3a3f 3c86 593f
00000060: aac7 363f 3d9f 4e3f 07c7 273f 4669 343f
00000070: 387c 3ac0 0e1d 12c0
-3.0163708 0.6963116 -3.0071442 -2.9905913 -1.7511104 -2.6885917 0.8490525 0.73700523
0.79763883 -2.9921143 0.62519115 0.7659351 0.6715522 -2.3233244 -2.6537263 0.8265973
0.81095076 0.6857466 -3.142479 -3.0475984 -3.2864466 -3.436094 0.72754824 0.8497045
0.71398413 0.8071173 0.65538067 0.70473135 -2.9138317 -2.2830234
